hub/onnx/cv/ssrnet.onnx (onnx, 194139 bytes, 61 tensors)

funsion_block_stream1_stage_3_before_PB.0.weight f4 [10, 32, 1, 1]
-0.16500881 0.28527892 -0.020715516 0.026811438 0.83127236 -0.07302487 0.43444067 -0.7085876
-0.21126519 0.81135416 0.7155922 -0.5723693 -0.094607726 -0.0583525 0.67367417 0.15585048
0.46387458 -0.096279986 -0.39080158 0.31931943 -0.32284212 -0.46489012 -0.012257077 -0.56483793
-0.020315072 -0.35220903 0.5260327 0.42269418 -0.062224463 0.40173754 0.1029276 -0.012155977
-0.13834965 -0.16391434 0.24247883 -0.14469847 -0.066670544 0.6211843 -0.2284737 0.0007776887
-0.23945391 0.70729965 -0.13041364 0.30153134 -0.5035429 -0.6085209 0.33814308 0.19588315
-0.8297452 0.34584412 -0.39073658 -0.64239055 -0.41019297 0.14844233 -0.6742224 0.23064749
0.2515654 0.14973465 0.115001045 0.015193036 1.1824645 -0.7397942 -0.33961102 0.07564653
-0.20255713 -0.08858379 0.10998192 -0.41334468 0.08505857 0.15976344 -0.32376447 0.31205437
0.4205016 -0.13007058 0.027062347 -0.089539565 -0.07843753 -0.07439862 0.07271266 -0.28274438
-0.18916161 -0.138176 -0.042229813 -0.2409837 0.1297779 0.048606217 -0.50793177 0.22532922
-0.049568307 -0.020956289 0.05779932 -0.64724123 0.32050815 -0.07948107 0.33785278 -0.26501852
0.34054953 0.035608653 -0.45928377 0.35000944 0.6142445 0.0035980802 -0.20662138 -0.5007148
-0.38634947 0.43889245 -0.45881808 -0.37059 -0.17788781 -0.38066727 0.21058796 0.20224434
0.33202684 0.7068015 -0.3643667 -0.26942417 -0.508428 -0.6415095 0.27713814 -0.6720003
0.11978066 -0.48122472 0.12256822 0.12672076 0.18678838 -0.14297505 0.11598927 -0.03326498
-0.44781768 -0.3212132 -0.046950918 -0.32384664 -0.15891941 0.4493709 0.006580799 -0.2378359
-0.31243226 -0.29256132 0.18827881 -0.32081872 -0.14950961 -0.632178 -0.06518342 -0.2492206
-0.22330308 -0.40952545 0.14751607 0.37405425 -0.25722173 -0.6771987 0.17794435 -0.6364275
0.3615133 -0.19519426 0.14068508 0.066434324 -0.33131698 0.20254456 -0.4216624 -0.1170807
-0.17238015 0.05147228 -0.012900548 0.027785983 -0.22106282 -0.3365241 0.35226348 -0.23431152
-0.09179898 -0.18684131 0.058113545 0.24181893 -0.033204567 -0.40071794 0.01852982 0.0014152572
-0.057051033 -0.18609773 -0.044549957 0.18431064 0.01626322 0.2358617 0.14267454 0.16768
-0.41057125 0.41707787 -0.33665764 -0.033462077 -0.2864626 0.3119272 -0.10883318 -0.08604929
0.4133038 -0.39078614 -0.32521492 0.285982 -0.28339687 -0.5839009 -0.0044161393 -0.39205584
-0.5440826 -0.07155241 0.367045 0.14526117 -0.016385704 0.46940053 0.17428593 0.23329689
-0.2638158 0.5592613 -0.35093993 -0.11052494 -0.2557527 -0.29825076 -0.5782261 0.05327433
0.2513993 -0.1880762 0.14581037 -0.30689704 0.058907554 -0.020712622 -0.032716874 0.24800856
0.12248788 0.12130302 0.074632704 -0.25817564 0.021027902 -0.30837888 -0.08313945 0.20813765
0.45746413 -0.2354424 -0.13423748 -0.2922395 -0.07336822 0.8158038 -0.22011797 -0.3966246
-0.16601844 0.021536414 -0.24637224 -0.051146604 -0.67818177 0.354337 0.10089127 -0.39571616
0.49573147 0.3560012 0.004771768 -0.20757137 -0.10573843 0.11071969 -0.0064765075 -0.08214356
00000000: 12f8 28be 1410 923e 96b3 a9bc a9a3 db3c
00000010: 44ce 543f 108e 95bd 026f de3e ff65 35bf
00000020: e755 58be e8b4 4f3f 0d31 373f cb86 12bf
00000030: b2c1 c1bd 0803 6fbd e975 2c3f 4597 1f3e
00000040: f880 ed3e 712e c5bd 2517 c8be d67d a33e
00000050: 904b a5be 1406 eebe e8d1 48bc 3899 10bf
00000060: cb6b a6bc be54 b4be 14aa 063f 5f6b d83e
00000070: 14df 7ebd 8bb0 cd3e b5cb d23d dd29 47bc
00000080: 88ab 0dbe 29d9 27be 5f4c 783e d62b 14be
00000090: 918a 88bd ef05 1f3f 02f5 69be cedd 4b3a
000000a0: 6833 75be 9711 353f 278b 05be 5162 9a3e
000000b0: 30e8 00bf 07c8 1bbf 1721 ad3e 9895 483e
000000c0: 2e6a 54bf 7b12 b13e a00e c8be b573 24bf
000000d0: d004 d2be 4401 183e d799 2cbf db2e 6c3e
000000e0: 2ecd 803e 0a54 193e ab85 eb3d 36ec 783c
000000f0: ff5a 973f 2763 3dbf 7fe1 adbe 91ec 9a3d
00000100: 236b 4fbe 6b6b b5bd 333e e13d eaa1 d3be
00000110: 3033 ae3d 0799 233e 75c4 a5be 97c5 9f3e
00000120: fc4b d73e 3931 05be dbb1 dd3c 8560 b7bd
00000130: dba3 a0bd 4e5e 98bd 60ea 943d dfc3 90be
00000140: 95b3 41be 027e 0dbe 2bf9 2cbd 6ec4 76be
00000150: 7fe4 043e 5017 473d d107 02bf b4bc 663e
00000160: 2308 4bbd 86ac abbc fbbe 6c3d 9ab1 25bf
00000170: a519 a43e f9c6 a2bd 0afb ac3e 82b0 87be
00000180: 825c ae3e 61da 113d 3e27 ebbe 7034 b33e
00000190: 213f 1d3f c5cd 6b3b 8e94 53be d82e 00bf
000001a0: 99cf c5be 83b6 e03e 34ea eabe f9bd bdbe
000001b0: 3928 36be d2e6 c2be 5fa4 573e 2419 4f3e
000001c0: 6cff a93e f1f0 343f 468e babe f7f1 89be
000001d0: 5628 02bf f739 24bf 0de5 8d3e 3608 2cbf
000001e0: 904f f53d 1663 f6be 0c05 fb3d 16c3 013e
000001f0: 7445 3f3e 0d68 12be c88b ed3d dc40 08bd
00000200: 5c48 e5be 0e76 a4be 9b4f 40bd 3acf a5be
00000210: c5bb 22be f113 e63e bea3 d73b 418b 73be
00000220: 1ff7 9fbe 99ca 95be 29cc 403e 5a42 a4be
00000230: 0c19 19be 6bd6 21bf e37e 85bd af33 7fbe
00000240: 90a9 64be 52ad d1be 740e 173e 0a84 bf3e
00000250: 91b2 83be e55c 2dbf 0b37 363e eaec 22bf
00000260: 4518 b93e 01e1 47be c00f 103e b80e 883d
00000270: 61a2 a9be d767 4f3e 22e4 d7be 02c8 efbd
00000280: 6c84 30be 99d4 523d d25c 53bc 6e9f e33c
00000290: 4b5e 62be e34c acbe e15b b43e 5cef 6fbe
000002a0: 1b01 bcbd 5453 3fbe 7808 6e3d 629f 773e
000002b0: 8301 08bd e72a cdbe d9cb 973c 2780 b93a
000002c0: 58ae 69bd 6790 3ebe 047a 36bd eebb 3c3e
000002d0: 723a 853c bb85 713e 4619 123e 4eb4 2b3e
000002e0: 6536 d2be 3b8b d53e 645e acbe 880f 09bd
000002f0: 3aab 92be ecb4 9f3e eee3 debd 9c3a b0bd
00000300: 8e9c d33e 1f15 c8be 9282 a6be 3c6c 923e
00000310: 6519 91be 887a 15bf 43b5 90bb 8bbb c8be
00000320: ff48 0bbf 128a 92bd 52ed bb3e 58bf 143e
00000330: 503b 86bc 4455 f03e 0378 323e 61e5 6e3e
00000340: dd12 87be c02b 0f3f 66ae b3be e65a e2bd
00000350: 05f2 82be 53b4 98be a006 14bf 2f36 5a3d
00000360: 69b7 803e 0c97 40be 504f 153e 9c21 9dbe
00000370: 0c49 713d 84ad a9bc 2102 06bd f5f5 7d3e
00000380: edda fa3d b86d f83d 08d9 983d 992f 84be
00000390: b542 ac3c d6e3 9dbe 0445 aabd 0922 553e
000003a0: bd38 ea3e d017 71be 8d75 09be 6aa0 95be
000003b0: 1442 96bd 85d8 503f 9b66 61be 6112 cbbe
000003c0: bd00 2abe 226d b03c 0149 7cbe 1a7f 51bd
000003d0: 529d 2dbf a96b b53e 15a0 ce3d 4f9b cabe
000003e0: 84d0 fd3e ca45 b63e 7e5c 9c3b 978d 54be
000003f0: 648d d8bd 01c1 e23d e238 d4bb e23a a8bd

funsion_block_stream1_stage_3_before_PB.0.bias f4 [10]
0.022970576 -0.2039344 0.09799278 0.17188865 0.021361569 0.054268803 0.070658594 -0.04745292
-0.32382813 0.17312357
00000000: ca2c bc3c 2ed4 50be 70b0 c83d 9403 303e
00000010: 75fe ae3c f748 5e3d 74b5 903d fe5d 42bd
00000020: cdcc a5be 4e47 313e

funsion_block_stream1_stage_3_prediction_block.1.weight f4 [3, 160]
-1.571e-41 -3.936e-42 5.7483e-41 3.866e-42 1.9578e-41 -2.9232e-41 -2.381e-41 -2.7485e-41
-3.2675e-41 5.786e-42 -2.2223e-41 2.643e-41 -5.84e-41 6.1517e-41 -4.668e-42 1.5678e-41
2.2995e-41 2.194e-41 4.3931e-41 -2.183e-41 2.4646e-41 -2.2354e-41 2.48e-42 9.434e-42
-2.7552e-41 1.539e-42 7.645e-42 2.0413e-41 -1.714e-41 1.5644e-41 -2.7531e-41 3.309e-41
2.4478e-41 3.086e-42 2.66e-42 1.5731e-41 5.751e-41 5.298e-42 -4.6515e-41 -9.187e-42
-1.5787e-41 5.4562e-41 2.3479e-41 2.0397e-41 2.5324e-41 1.6359e-41 2.8361e-41 -1.7194e-41
-2.2589e-41 1.117e-42 -9.256e-42 7.026e-42 -9.99e-42 3.841e-42 2.2019e-41 -1.3155e-41
-3.9239e-41 -3.4095e-41 4.4736e-41 4.539e-42 -3.3006e-41 -1.2536e-41 4.3728e-41 -2.299e-41
3.5307e-41 -2.6385e-41 2.5335e-41 3.3373e-41 -2.9039e-41 5.7991e-41 2.6531e-41 1.6916e-41
-4.64e-43 -2.1452e-41 -2.3627e-41 2.892e-42 2.2742e-41 1.8824e-41 1.5686e-41 1.4785e-41
-3.4779e-41 8.75e-42 2.1053e-41 1.7314e-41 -1.7204e-41 9.368e-42 -5.7973e-41 -1.9414e-41
-7.284e-42 2.492e-42 2.4744e-41 -2.1681e-41 1.146e-41 9.965e-42 3.261e-42 5.9318e-41
-3.66e-43 1.3754e-41 -6.251e-42 -1.562e-42 8.503e-42 -1.4052e-41 -4.543e-41 -2.1804e-41
2.1869e-41 -6.747e-42 -2.1472e-41 4.0429e-41 5.8957e-41 -1.539e-42 -4.01e-41 3.0555e-41
-4.6076e-41 1.7474e-41 2.1974e-41 -3.821e-42 1.99e-43 3.0417e-41 -5.3958e-41 4.533e-41
1.817e-42 5.0497e-41 6.0086e-41 -2.1604e-41 1.9e-42 2.7747e-41 3.3103e-41 2.308e-41
-3.3969e-41 -5.2308e-41 -3.804e-41 2.3903e-41 3.86e-42 -2.2035e-41 9.11e-43 3.2514e-41
2.828e-41 -2.875e-41 8.409e-42 2.1259e-41 5.8263e-41 -5.224e-42 -2.2358e-41 -2.9567e-41
-3.9524e-41 -2.6874e-41 -2.0247e-41 1.11654e-40 1.742e-41 3.851e-42 2.6455e-41 3.2964e-41
-2.564e-42 -5.2634e-41 3.877e-41 -1.2986e-41 3.4971e-41 -3.337e-41 -2.7957e-41 2.1957e-41
-2.136e-41 3.9933e-41 2.955e-42 1.247e-42 2.028e-42 5.057e-42 -1.3602e-41 1.3975e-41
1.1855e-41 6.809e-42 1.8877e-41 -5.9994e-41 -4.0395e-41 1.0832e-41 8.182e-42 2.5256e-41
1.3373e-41 -2.117e-41 1.3831e-41 2.744e-41 -5.576e-42 2.4821e-41 3.3668e-41 -2.8951e-41
-4.4507e-41 -1.1848e-41 -3.7427e-41 2.7213e-41 -3.3449e-41 -1.3525e-41 -1.0067e-41 2.4192e-41
1.5832e-41 1.3943e-41 -4.1034e-41 -3.4787e-41 -2.4754e-41 -1.7166e-41 3.631e-42 2.4879e-41
2.1562e-41 -4.232e-42 -1.235e-41 2.0711e-41 1.1017e-41 4.2932e-41 -5.743e-42 1.2337e-41
-1.5814e-41 4.441e-42 -5.6317e-41 -4.4434e-41 -1.9572e-41 1.17e-41 -3.946e-42 2.353e-41
3.91e-43 5.4724e-41 1.4424e-41 5.2798e-41 1.0627e-41 2.875e-42 -4.6202e-41 1.6153e-41
7.675e-42 1.4169e-41 -9.904e-42 1.6147e-41 -9.6e-42 1.206e-41 -2.497e-41 -1.214e-42
2.1211e-41 -2.3864e-41 -6.0344e-41 -6.415e-42 6.0106e-41 -3.2506e-41 8.984e-42 -3.59e-43
3.159e-42 -4.218e-42 -5.9718e-41 -4.4406e-41 -2.26e-42 -2.8131e-41 1.575e-41 -2.9419e-41
-1.816e-42 -8.448e-42 5.743e-42 -2.0382e-41 -2.5834e-41 -2.085e-42 2.5003e-41 -1.1599e-41
00000000: cb2b 0080 f90a 0080 3da0 0000 c70a 0000
00000010: 9336 0000 7d51 0080 5f42 0080 9e4c 0080
00000020: 165b 0080 2110 0000 f33d 0080 ad49 0000
00000030: cca2 0080 7cab 0000 030d 0080 b42b 0000
00000040: 1a40 0000 293d 0000 767a 0000 da3c 0080
00000050: b444 0000 503e 0080 ea06 0000 4c1a 0000
00000060: ce4c 0080 4a04 0000 5015 0000 e738 0000
00000070: c82f 0080 9c2b 0000 bf4c 0080 3e5c 0000
00000080: 3c44 0000 9a08 0000 6a07 0000 da2b 0000
00000090: 51a0 0000 c50e 0000 aa81 0080 9c19 0080
000000a0: 022c 0080 1998 0000 7341 0000 dc38 0000
000000b0: 9846 0000 9a2d 0000 0f4f 0000 ee2f 0080
000000c0: f83e 0080 1d03 0000 cd19 0080 9613 0000
000000d0: d91b 0080 b50a 0000 613d 0000 ac24 0080
000000e0: 626d 0080 0b5f 0080 b57c 0000 a70c 0000
000000f0: 025c 0080 f222 0080 e579 0000 1640 0080
00000100: 6c62 0000 8d49 0080 a046 0000 085d 0000
00000110: f350 0080 a8a1 0000 f549 0000 282f 0000
00000120: 4b01 0080 cd3b 0080 dd41 0080 1008 0000
00000130: 653f 0000 7934 0000 ba2b 0000 3729 0000
00000140: f360 0080 6418 0000 b03a 0000 4430 0000
00000150: f52f 0080 1d1a 0000 9ba1 0080 1e36 0080
00000160: 4e14 0080 f206 0000 fa44 0000 703c 0080
00000170: f21f 0000 c71b 0000 1709 0000 5ba5 0000
00000180: 0501 0080 5726 0000 6d11 0080 5b04 0080
00000190: b417 0000 2c27 0080 a47e 0080 c83c 0080
000001a0: f63c 0000 cf12 0080 db3b 0080 b370 0000
000001b0: 59a4 0000 4a04 0080 c86f 0080 2d55 0000
000001c0: 7180 0080 b630 0000 413d 0000 a70a 0080
000001d0: 8e00 0000 ca54 0000 6a96 0080 5d7e 0000
000001e0: 1105 0000 c48c 0000 7fa7 0000 393c 0080
000001f0: 4c05 0000 594d 0000 475c 0000 5640 0000
00000200: b15e 0080 d091 0080 0a6a 0080 a242 0000
00000210: c30a 0000 6d3d 0080 8a02 0000 a35a 0000
00000220: d54e 0000 2550 0080 7117 0000 433b 0000
00000230: 6aa2 0000 900e 0080 533e 0080 6c52 0080
00000240: 2d6e 0080 ea4a 0080 7138 0080 3f37 0100
00000250: 8f30 0000 bc0a 0000 bf49 0000 e45b 0000
00000260: 2607 0080 b992 0080 136c 0000 3324 0080
00000270: 7c61 0000 065d 0080 ef4d 0080 353d 0000
00000280: 8b3b 0080 516f 0000 3d08 0000 7a03 0000
00000290: a705 0000 190e 0000 eb25 0080 f526 0000
000002a0: 0c21 0000 fb12 0000 9f34 0000 3da7 0080
000002b0: 9b70 0080 321e 0000 cf16 0000 6746 0000
000002c0: 4725 0000 033b 0080 8e26 0000 7e4c 0000
000002d0: 8b0f 0080 3145 0000 da5d 0000 b450 0080
000002e0: 117c 0080 0721 0080 5568 0080 dc4b 0000
000002f0: 3e5d 0080 b425 0080 101c 0080 7043 0000
00000300: 222c 0000 de26 0000 6372 0080 f960 0080
00000310: 0145 0080 da2f 0080 1f0a 0000 5a45 0000
00000320: 1b3c 0000 cc0b 0080 6d22 0080 bc39 0000
00000330: b61e 0000 ad77 0000 0210 0080 6422 0000
00000340: 152c 0080 610c 0000 fd9c 0080 dd7b 0080
00000350: 8f36 0080 9d20 0000 000b 0080 9841 0000
00000360: 1701 0000 8c98 0000 3528 0000 2e93 0000
00000370: a01d 0000 0408 0000 cb80 0080 072d 0000
00000380: 6515 0000 7f27 0000 9c1b 0080 032d 0000
00000390: c31a 0080 9e21 0000 9b45 0080 6203 0080
000003a0: 213b 0000 8642 0080 37a8 0080 e211 0080
000003b0: 8da7 0000 9d5a 0080 0b19 0000 0001 0080
000003c0: ce08 0000 c20b 0080 78a6 0080 c97b 0080
000003d0: 4d06 0080 6b4e 0080 e82b 0000 0252 0080
000003e0: 1005 0080 8d17 0080 0210 0000 d138 0080
000003f0: 0448 0080 d005 0080 b345 0000 5520 0080

funsion_block_stream1_stage_3_prediction_block.1.bias f4 [3]
-5.6086e-41 1.03853e-40 3.9095e-41
00000000: 589c 0080 8021 0100 fb6c 0000

funsion_block_stream1_stage_2_before_PB.0.weight f4 [10, 32, 1, 1]
-0.4940276 -0.14624515 0.32867104 0.049743235 -0.57578766 0.33305568 -0.0670426 -0.12836358
0.16937052 0.4324602 0.29607865 -0.37830818 -0.31819662 -0.44314775 0.23586683 -1.1464065
0.31939593 -0.3707272 -0.018122293 0.53155494 0.05643237 0.5903438 -0.6326613 -0.40211138
0.2991906 0.21146621 0.40109292 -0.5410797 -0.318705 -0.39028922 0.55163646 -0.6110227
0.2654093 -0.32899505 -0.32316002 -0.5720946 -0.7315624 -1.0185608 0.16065405 -0.5150421
0.7607137 -0.51934516 -0.28895438 -0.0729372 0.13829267 -0.20917025 -0.55058026 0.37952334
-0.27204853 0.5874638 -0.8415764 -0.067007214 0.183892 0.5786794 -0.294389 0.2518898
-0.5800753 0.25336358 -0.052859012 0.367362 -0.44426587 -0.029127307 0.26486704 0.16159306
0.1098684 0.022850294 0.041118722 -0.124775745 -0.30915114 0.21119055 0.29979932 0.34606433
-0.57875586 -0.15122637 0.054297388 0.29928625 -0.15186353 -0.46211568 -0.5613824 -0.19542256
-0.18664993 0.28571612 -0.5440939 -0.007328431 1.1096597 0.13611653 -0.17768297 -0.17425844
-0.0003008223 -0.98582274 -0.9432331 0.20226432 0.684839 0.50603706 0.4278551 -0.96778256
-1.57275 -0.11613279 0.007510783 -0.9881486 0.045342635 -0.27595216 -0.08624129 -0.13076657
-0.22565843 -0.42587003 -0.18667537 0.7353682 0.021303676 -0.49362838 -0.20275833 -0.34597093
0.10650203 0.55308974 0.2701842 -0.25567067 0.87560827 0.21411791 -0.184391 -0.7440696
-0.24908097 0.050591476 -0.08173274 -0.29581133 -0.3499031 0.69510466 0.3638723 -0.1602092
0.15963133 -0.012281161 0.42622846 -0.5507485 0.15027297 0.2795795 -0.03711161 0.1292204
-0.65451974 -1.122284 -0.9223743 -0.08502597 0.07140615 -0.83427244 -0.95248365 -0.42942384
0.022462906 0.1187155 0.8889374 0.37867272 -0.39692467 -0.11741103 0.13341878 -0.19030176
-0.3716792 -0.34717718 -0.022273157 0.9358405 0.74992335 -0.4578621 0.9843041 -0.7206158
0.39691633 0.26798216 0.18135244 -0.5570046 0.07908817 0.3411571 0.26576093 0.3973932
-0.33544433 -1.4270086 -0.12971255 0.0029794902 -0.1267223 0.16523857 -0.43795738 -0.025140561
0.2157381 -0.21278557 -1.3610283 0.58678246 0.54762053 -0.38580668 -0.028633634 -0.060833197
0.4361932 0.36849806 -0.88308775 -0.0025489843 0.19852932 0.07250129 -0.03296551 -0.60844064
-0.1601707 0.5997107 -0.102135964 0.22431454 -0.44762385 0.42206544 0.41940734 0.73549014
-0.6541609 -0.4984972 -0.11756727 0.27123114 -0.40329725 0.3115036 -0.2613115 -0.8369489
0.024055872 -0.9009862 -1.5254954 -0.10417711 -0.46572718 -0.6181672 0.38218898 -0.15431337
-0.79761297 -0.21519409 -0.2462332 -0.2772957 -0.2060266 0.6314654 -0.06557499 0.42336777
0.06277687 -0.015750315 -0.22377476 -0.77995735 -0.8811896 0.28616965 0.044047903 -0.14989756
-0.06196948 0.886315 -0.2165986 0.11816638 -0.5438149 0.3424317 -0.24411081 -0.59757674
-0.42773 -0.40022075 0.9046585 -0.34715033 -0.11925849 -0.25203416 -0.056647874 -0.34168217
0.87260276 -0.30803478 -0.37375885 0.48181942 -0.3274465 -0.19772409 -0.13431177 -0.41868055
00000000: 30f1 fcbe 4ac1 15be 9247 a83e 90bf 4b3d
00000010: d266 13bf 4686 aa3e a14d 89bd be71 03be
00000020: 776f 2d3e 6c6b dd3e 9f97 973e 9cb1 c1be
00000030: abea a2be 43e4 e2be 1387 713e 73bd 92bf
00000040: dd87 a33e f5cf bdbe 3475 94bc fc13 083f
00000050: a125 673d c520 173f 17f6 21bf 8be1 cdbe
00000060: 832f 993e 998a 583e 0d5c cd3e 3384 0abf
00000070: 4d2d a3be fdd3 c7be 0c38 0d3f fc6b 1cbf
00000080: bae3 873e 0a72 a8be 3b75 a5be cb74 12bf
00000090: ac47 3bbf 3360 82bf 7f82 243e cdd9 03bf
000000a0: 22be 423f cef3 04bf d4f1 93be 1960 95bd
000000b0: 989c 0d3e ba30 56be d4f2 0cbf e250 c23e
000000c0: f249 8bbe 0764 163f 8d71 57bf 143b 89bd
000000d0: 2f4e 3c3e 5524 143f 28ba 96be b3f7 803e
000000e0: d17f 14bf dfb8 813e b182 58bd df16 bc3e
000000f0: d176 e3be 649c eebc a79c 873e a778 253e
00000100: af02 e13d 8a30 bb3c 1b6c 283d 6d8a ffbd
00000110: 0f49 9ebe 5642 583e 4c7f 993e 582f b13e
00000120: 5829 14bf 16db 1abe f066 5e3d 0c3c 993e
00000130: 1d82 1bbe 6d9a ecbe c2b6 0fbf da1c 48be
00000140: 2921 3fbe 6249 923e bd49 0bbf 5623 f0bb
00000150: 5409 8e3f 2262 0b3e 86f2 35be ce70 32be
00000160: b0b7 9db9 e15e 7cbf b977 71bf 611e 4f3e
00000170: 9c51 2f3f a58b 013f d30f db3e 99c0 77bf
00000180: df4f c9bf 07d7 edbd 041d f63b 4ff7 7cbf
00000190: 33b9 393d 9a49 8dbe 469f b0bd ace7 05be
000001a0: 0113 67be a30b dabe d427 3fbe 1741 3c3f
000001b0: 0c85 ae3c dcbc fcbe e19f 4fbe 1a23 b1be
000001c0: bc1d da3d 4a97 0d3f 9555 8a3e 44e7 82be
000001d0: dd27 603f ba41 5b3e ffd0 3cbe 587b 3ebf
000001e0: 150f 7fbe 0239 4f3d 7f63 a7bd 9574 97be
000001f0: 8026 b3be 61f2 313f 784d ba3e e10d 24be
00000200: 6576 233e ec36 49bc 9e3a da3e dbfd 0cbf
00000210: 28e1 193e 0b25 8f3e 5802 18bd 5a52 043e
00000220: 9b8e 27bf 01a7 8fbf b920 6cbf 1922 aebd
00000230: 633d 923d e192 55bf f8d5 73bf 71dd dbbe
00000240: 2104 b83c 1d21 f33d 6791 633f 64e1 c13e
00000250: b639 cbbe 3275 f0bd ef9e 083e 77de 42be
00000260: bc4c bebe 35c1 b1be 3276 b6bc 3e93 6f3f
00000270: fafa 3f3f e76c eabe 5afb 7b3f 477a 38bf
00000280: 9e38 cb3e f534 893e 74b4 393e da97 0ebf
00000290: faf8 a13d 25ac ae3e d111 883e 1f77 cb3e
000002a0: 5cbf abbe 38a8 b6bf 5ed3 04be 8d43 433b
000002b0: 7ec3 01be 4d34 293e f33b e0be 94f3 cdbc
000002c0: 73ea 5c3e 76e4 59be 2d36 aebf 6037 163f
000002d0: dc30 0c3f 7488 c5be 1591 eabc 3b2c 79bd
000002e0: b754 df3e c7ab bc3e 0a12 62bf dc0c 27bb
000002f0: 454b 4b3e 8e7b 943d d806 07bd c4c2 1bbf
00000300: ca03 24be a486 193f a92c d1bd b6b2 653e
00000310: f42e e5be f618 d83e 8fbc d63e 1549 3c3f
00000320: 1777 27bf 063b ffbe 1cc7 f0bd cfde 8a3e
00000330: fa7c cebe 667d 9f3e 9fca 85be 4842 56bf
00000340: d210 c53c 08a7 66bf 6f43 c3bf cf5a d5bd
00000350: cb73 eebe 3540 1ebf 46ae c33e 5304 1ebe
00000360: 5d30 4cbf d75b 5cbe 8e24 7cbe b4f9 8dbe
00000370: a3f8 52be b7a7 213f 2e4c 86bd a9c3 d83e
00000380: 2991 803d ce06 81bc 3625 65be 49ab 47bf
00000390: a495 61bf d484 923e 936b 343d bf7e 19be
000003a0: b6d3 7dbd 8ae5 623f 06cc 5dbe 3701 f23d
000003b0: 7437 0bbf 3553 af3e 2ff8 79be cafa 18bf
000003c0: 6dff dabe bce9 ccbe b397 673f b0bd b1be
000003d0: cc3d f4bd 9f0a 81be 9a07 68bd f7f0 aebe
000003e0: e562 5f3f bcb6 9dbe 525d bfbe 09b1 f63e
000003f0: 11a7 a7be 2f78 4abe 0689 09be 4c5d d6be

funsion_block_stream1_stage_2_before_PB.0.bias f4 [10]
0.014737872 -0.09728052 -0.11273717 -0.08354836 -0.084664576 0.015553858 -0.06517953 -0.11287589
-0.1166472 -0.10504813
00000000: 1e77 713c 023b c7bd bfe2 e6bd 671b abbd
00000010: 9f64 adbd 9cd5 7e3c d87c 85bd 7a2b e7bd
00000020: bae4 eebd 7923 d7bd

funsion_block_stream1_stage_2_prediction_block.1.weight f4 [3, 160]
-9.7344e-41 -2.5335e-41 -3.1442e-41 5.6366e-41 2.3524e-41 5.5468e-41 1.9819e-41 3.9533e-41
2.9162e-41 5.1868e-41 8.9951e-41 3.8557e-41 -3.7516e-41 2.9366e-41 6.1137e-41 -2.7653e-41
-6.0752e-41 -1.041e-41 -5.9882e-41 5.822e-42 -2.3609e-41 3.314e-41 -1.0015e-41 1.55e-42
-1.796e-41 -3.1811e-41 -1.726e-41 -2.8044e-41 -2.3395e-41 -1.348e-42 -5.5035e-41 -1.7864e-41
-3.4218e-41 -9.177e-42 2.2286e-41 -1.15505e-40 -9.002e-41 2.7025e-41 2.9825e-41 1.811e-41
-5.734e-41 -5.3008e-41 6.0203e-41 -1.2455e-41 4.6103e-41 -4.47e-43 -4.825e-42 -1.2357e-41
1.5938e-41 6.0177e-41 -4.0349e-41 -3.9847e-41 -4.88e-43 1.4407e-41 -3.0055e-41 7.564e-42
4.493e-42 3.0735e-41 2.9305e-41 -1.3954e-41 2.9241e-41 2.123e-42 -1.169e-41 -2.9067e-41
1.7795e-41 -5.0427e-41 -4.1645e-41 -1.5647e-41 9.51e-43 1.3249e-41 -5.3566e-41 -1.0971e-41
-2.8797e-41 -4.016e-42 -1.2215e-41 2.0261e-41 7.417e-42 -1.572e-41 -2.6172e-41 6.45e-42
2.7083e-41 -6.1653e-41 2.2422e-41 -3.346e-41 4.5106e-41 5.9194e-41 -2.6395e-41 8.426e-42
-4.5403e-41 -5.415e-42 3.2192e-41 1.7058e-41 3.3605e-41 3.1057e-41 4.43e-42 -2e-41
1.8165e-41 2.3008e-41 -8.823e-42 4.4947e-41 -3.2238e-41 2.8687e-41 3.5482e-41 -4.7545e-41
-2.6043e-41 1.619e-41 -1.656e-41 -2.27e-42 -6.38e-42 -5.934e-42 -1.8479e-41 -5.59e-43
-1.6904e-41 -2.8344e-41 1.0236e-41 5.3563e-41 -1.1877e-40 4.7794e-41 3.4574e-41 6.742e-41
2.1556e-41 -3.2505e-41 -2.1639e-41 3.3621e-41 -4.086e-42 5.1896e-41 -2.4577e-41 -9.4379e-41
-1.8119e-41 6.969e-42 3.7985e-41 3.227e-42 5.364e-42 -2.1444e-41 -4.5378e-41 -7.657e-42
9.785e-42 -1.6074e-41 -3.3111e-41 1.3412e-41 -5.913e-42 2.8348e-41 9.74e-43 -4.6691e-41
9.752e-42 -3.3997e-41 5.9379e-41 -1.125e-41 1.9568e-41 -3.0627e-41 9.725e-42 5.2259e-41
-5.4518e-41 5.8975e-41 -3.5011e-41 6.2202e-41 3.0132e-41 -2.331e-41 -5.4684e-41 2.1743e-41
-4.6369e-41 -1.6973e-41 -2.7569e-41 3.8471e-41 -4.3763e-41 -2.38e-42 -4.5116e-41 -9.313e-42
-2.905e-42 -1.4048e-41 6.3587e-41 -5.4868e-41 -1.07732e-40 -5.7073e-41 -3.41e-41 -1.243e-41
-2.8715e-41 -3.5454e-41 -3.9725e-41 -1.3349e-41 -5.2776e-41 2.4122e-41 -9.111e-42 3.3944e-41
4.878e-42 -3.613e-42 -4.6562e-41 1.7928e-41 -1.177e-41 2.1405e-41 -4.9501e-41 6.153e-42
2.1148e-41 8.985e-42 5.579e-42 5.4911e-41 -3.2727e-41 -1.3018e-41 4.2218e-41 -3.4312e-41
-2.889e-41 2.1719e-41 -5.312e-41 -8.6488e-41 4.6003e-41 4.6143e-41 -1.14558e-40 -6.0523e-41
-3.311e-41 -1.3793e-41 3.2706e-41 1.4219e-41 -1.18708e-40 2.0288e-41 -6.456e-42 1.641e-41
-3.95e-42 2.826e-42 -6.865e-42 -4.6121e-41 6.1768e-41 1.5637e-41 5.8475e-41 -4.892e-41
6.1685e-41 -3.5545e-41 -4.6543e-41 -1.3186e-41 -4.7078e-41 -3.8438e-41 -4.858e-42 4.0956e-41
3.5597e-41 -4.3953e-41 -5.175e-42 5.6016e-41 -3.3382e-41 6.646e-42 -3.5296e-41 3.4253e-41
-1.2491e-41 -1.6367e-41 4.085e-41 -1.7823e-41 -4.6351e-41 1.8995e-41 2.2188e-41 -3.8869e-41
8.11e-43 4.7581e-41 -3.414e-41 -5.6545e-41 -2.8022e-41 -2.2925e-41 3.3375e-41 2.9005e-41
00000000: 5b0f 0180 a046 0080 a657 0080 209d 0000
00000010: 9341 0000 9f9a 0000 3f37 0000 346e 0000
00000020: 4b51 0000 9690 0000 bffa 0000 7b6b 0000
00000030: 9468 0080 dc51 0000 6daa 0000 164d 0080
00000040: 5aa9 0080 051d 0080 eda6 0080 3b10 0000
00000050: d041 0080 615c 0000 eb1b 0080 5204 0000
00000060: 1132 0080 ad58 0080 1d30 0080 2d4e 0080
00000070: 3741 0080 c203 0080 6a99 0080 cc31 0080
00000080: 635f 0080 9519 0080 203e 0000 fb41 0180
00000090: f0fa 0080 564b 0000 2453 0000 7c32 0000
000000a0: d79f 0080 c493 0080 d2a7 0000 b822 0080
000000b0: 8480 0000 3f01 0080 730d 0080 7222 0080
000000c0: 6e2c 0000 c0a7 0000 7a70 0080 146f 0080
000000d0: 5c01 0080 2928 0000 c853 0080 1615 0000
000000e0: 860c 0000 ad55 0000 b151 0000 e626 0080
000000f0: 8351 0000 eb05 0000 9620 0080 0751 0080
00000100: 9b31 0000 928c 0080 1774 0080 9e2b 0080
00000110: a702 0000 ef24 0000 5295 0080 951e 0080
00000120: 4650 0080 320b 0080 0d22 0080 7b38 0000
00000130: ad14 0000 d22b 0080 f548 0080 fb11 0000
00000140: 7f4b 0000 ddab 0080 813e 0000 465d 0080
00000150: bd7d 0000 02a5 0000 9449 0080 7d17 0000
00000160: 917e 0080 180f 0080 bd59 0000 8d2f 0000
00000170: ad5d 0000 9356 0000 590c 0000 c037 0080
00000180: a332 0000 2340 0000 9818 0080 4b7d 0000
00000190: de59 0080 f84f 0000 e962 0000 8984 0080
000001a0: 9948 0080 222d 0000 2a2e 0080 5406 0080
000001b0: c911 0080 8b10 0080 8333 0080 8f01 0080
000001c0: 1f2f 0080 034f 0080 891c 0000 5095 0000
000001d0: 154b 0180 3b85 0000 6160 0000 f1bb 0000
000001e0: 173c 0000 9c5a 0080 523c 0080 b95d 0000
000001f0: 640b 0080 aa90 0000 8344 0080 1707 0180
00000200: 8232 0080 6d13 0000 e369 0000 ff08 0000
00000210: f40e 0000 c73b 0080 7f7e 0080 5815 0080
00000220: 471b 0000 cf2c 0080 4d5c 0080 6325 0000
00000230: 7c10 0080 064f 0000 b702 0000 2882 0080
00000240: 2f1b 0000 c55e 0080 86a5 0000 5c1f 0080
00000250: 8c36 0000 6055 0080 1c1b 0000 ad91 0000
00000260: f997 0080 66a4 0000 9961 0080 65ad 0000
00000270: ff53 0000 fb40 0080 7098 0080 9c3c 0000
00000280: 4281 0080 502f 0080 da4c 0080 3e6b 0000
00000290: fe79 0080 a206 0080 c47d 0080 f619 0080
000002a0: 1908 0080 2927 0080 41b1 0000 f398 0080
000002b0: 502c 0180 199f 0080 0f5f 0080 a622 0080
000002c0: 0c50 0080 d562 0080 bd6e 0080 3625 0080
000002d0: 1e93 0080 3e43 0000 6619 0080 9f5e 0000
000002e0: 990d 0000 120a 0080 cc81 0080 fa31 0000
000002f0: cf20 0080 ab3b 0000 fd89 0080 2711 0000
00000300: f43a 0000 0c19 0000 8d0f 0000 1299 0000
00000310: 3b5b 0080 4a24 0080 b075 0000 a65f 0080
00000320: 8950 0080 8b3c 0000 1494 0080 18f1 0080
00000330: 3d80 0000 a180 0000 573f 0180 b7a8 0080
00000340: 4c5c 0080 7326 0080 2c5b 0000 a327 0000
00000350: e94a 0180 8e38 0000 ff11 0080 bf2d 0000
00000360: 030b 0080 e107 0000 2313 0080 9180 0080
00000370: 2fac 0000 972b 0000 01a3 0000 5e88 0080
00000380: f4ab 0000 1663 0080 be81 0080 c224 0080
00000390: 3c83 0080 266b 0080 8b0d 0080 2b72 0000
000003a0: 3b63 0000 867a 0080 6d0e 0080 269c 0000
000003b0: 0e5d 0080 8712 0000 6462 0080 7c5f 0000
000003c0: d222 0080 a02d 0080 e071 0000 af31 0080
000003d0: 3581 0080 f334 0000 da3d 0000 5a6c 0080
000003e0: 4302 0000 a384 0000 2b5f 0080 a09d 0080
000003f0: 1d4e 0080 e83f 0080 095d 0000 db50 0000

funsion_block_stream1_stage_2_prediction_block.1.bias f4 [3]
-3.6822e-41 -5.5661e-41 -5.3576e-41
00000000: a566 0080 299b 0080 5995 0080

funsion_block_stream1_stage_1_before_PB.0.weight f4 [10, 32, 1, 1]
-0.055512395 -0.41682878 -0.6028505 0.05703687 -0.54157025 -0.090364225 0.6053355 -0.43441015
-0.2401193 0.3980071 -0.12892745 -0.2632371 0.18032059 0.30159602 0.56944656 -0.12373066
0.44202337 -0.13312715 0.0020474384 -0.40483302 -0.6250787 0.45647487 -0.34086886 -0.35173467
0.13279778 0.3603569 -0.25210926 0.9585552 -0.24408136 -0.097430654 -0.34181497 -0.12760994
-0.59884214 -0.5185576 0.2747426 -0.057030324 -0.2947623 -0.296302 0.00034412742 0.11177077
-0.43154138 0.5120371 0.09767661 -0.09133254 -0.11533561 0.79851294 -0.2951182 -0.032702558
-0.71407145 0.20773071 0.21563478 -0.36178643 -0.70939857 -0.5394359 -0.8738664 0.25517434
-0.08220893 -0.048953746 0.27713287 -0.18329225 0.87950927 0.16684982 -0.56372315 0.11410486
0.3320907 0.11266345 -0.88475686 -0.54026943 -0.608548 -0.31184262 0.21582282 0.6190184
0.08677408 -1.1618493 0.019146083 0.09046835 -0.13836701 0.19658567 -0.43181333 0.26723117
-0.7243992 0.001370018 0.038621493 0.78599286 0.6572764 -0.43840423 -0.05329616 -0.87587667
-0.09799313 0.14014633 -0.9597752 0.021934737 -0.35778555 0.2788204 0.34197494 -0.74299586
-1.1028612 0.1632675 -0.49127632 0.4722641 -0.42479363 -0.06550277 -0.28400344 -0.8619206
0.5227272 0.11319148 -0.5258893 -0.565977 -0.16241176 0.150908 0.73225963 0.154646
0.42406103 0.31012163 -0.59770876 -0.2941611 -0.5005749 0.35895938 -0.4914284 -0.1984119
0.25395414 0.070471734 0.17959563 0.12781464 0.014774149 -0.41288203 -0.6819638 -0.4807167
-0.024428643 -0.5670926 0.0291797 0.18705136 -0.7186599 -0.24483871 0.070961006 0.54336077
1.0226669 0.31353623 0.21316892 -0.33366972 0.62060267 -0.47644925 -0.21636753 0.4964912
0.39492637 -1.0967076 -0.57131505 0.34038505 0.32830852 0.1419888 -0.18784277 0.023335135
-0.17204484 -0.06630775 -0.20157209 0.20869838 -0.51229686 -0.2613537 0.37123036 -0.60606486
-0.40803337 -0.037278447 -0.6315923 0.32743216 1.0188273 -0.1476715 0.0074506807 0.10089146
0.11444984 -0.572632 0.079496115 -0.3854203 -0.07022401 -0.615683 -0.21870443 -0.013410525
-0.55980694 -0.017007029 -0.18064955 0.42886412 0.41822293 0.8939906 0.33006197 -0.9219611
0.6554069 0.012443102 0.5123162 -0.2737751 -0.46529207 -0.84097767 0.3542272 -0.38524088
0.24547029 -0.34423965 -0.18941419 -0.036179446 0.25645018 0.47208688 0.27527237 0.11708376
-0.05892678 -0.58663726 -0.4849424 0.40274307 -0.062938325 0.1140232 -0.017805265 -0.32240695
0.31135684 -0.100855105 -0.05981258 -0.16383903 -0.22677226 -0.24604677 0.5905992 0.009894947
0.2196078 -0.046656333 -0.23475964 -0.10175009 -0.3570019 -0.63828003 -0.022796666 -0.3103679
0.048902143 -0.058046103 0.5974465 -0.40386063 -0.15736036 0.1325834 -0.036416925 0.32644385
-0.04641 0.21127869 0.28611523 0.1848427 -0.24058081 -0.28069162 -0.16064228 -0.4622692
-0.20617703 -0.6115196 -0.7779357 0.40195128 -0.5990376 -0.78494877 0.56922454 -0.4111449
0.10420296 0.06767778 0.3347323 0.14998198 0.30847222 -0.3232575 0.66942585 -0.05837451
00000000: f760 63bd 956a d5be 6954 1abf 7e9f 693d
00000010: 59a4 0abf e110 b9bd 44f7 1a3f 026b debe
00000020: d5e1 75be 96c7 cb3e 8f05 04be 03c7 86be
00000030: f6a5 383e cb6a 9a3e 40c7 113f 8066 fdbd
00000040: e350 e23e 7c52 08be 512e 063b 4646 cfbe
00000050: 2805 20bf 13b7 e93e 5d86 aebe 9116 b4be
00000060: 24fc 073e b380 b83e 7714 81be e063 753f
00000070: 77f0 79be b989 c7bd 5f02 afbe 2eac 02be
00000080: b84d 19bf 31c0 04bf 10ab 8c3e a198 69bd
00000090: 16eb 96be e5b4 97be 006c b439 13e8 e43d
000000a0: fef2 dcbe dd14 033f ad0a c83d 8e0c bbbd
000000b0: 1435 ecbd 586b 4c3f bc19 97be 1ef3 05bd
000000c0: 63cd 36bf 5cb7 543e 5dcf 5c3e 123c b9be
000000d0: 259b 35bf 7918 0abf b5b5 5fbf 36a6 823e
000000e0: 285d a8bd b983 48bd 5ce4 8d3e f7b0 3bbe
000000f0: 8527 613f aeda 2a3e 2950 10bf cfaf e93d
00000100: cb07 aa3e 18bc e63d 6d7f 62bf 194f 0abf
00000110: cdc9 1bbf d6a9 9fbe a800 5d3e fd77 1e3f
00000120: 9cb6 b13d 7ab7 94bf 3fd8 9c3c 7847 b93d
00000130: 15b0 0dbe c14d 493e a316 ddbe 86d2 883e
00000140: 3a72 39bf 2d92 b33a 9231 1e3d d436 493f
00000150: 4443 283f 8576 e0be 134d 5abd 7439 60bf
00000160: 9fb0 c8bd 8582 0f3e d4b3 75bf 7ab0 b33c
00000170: ab2f b7be 8cc1 8e3e 5717 af3e fa34 3ebf
00000180: 8e2a 8dbf 982f 273e 9288 fbbe 9acc f13e
00000190: 8d7e d9be 5126 86bd e668 91be d4a6 5cbf
000001a0: 73d1 053f efd0 e73d aea0 06bf dee3 10bf
000001b0: 454f 26be a087 1a3e 5e75 3b3f 855b 1e3e
000001c0: 871e d93e 43c8 9e3e 7103 19bf 499c 96be
000001d0: ad25 00bf 86c9 b73e 819c fbbe 7d2c 4bbe
000001e0: 4706 823e 7c53 903d ebe7 373e d7e1 023e
000001f0: 460f 723c 4665 d3be 2e95 2ebf 8020 f6be
00000200: 941e c8bc fb2c 11bf 440a ef3c 648a 3f3e
00000210: 18fa 37bf 00b7 7abe 0154 913d b119 0b3f
00000220: c0e6 823f d287 a03e f448 5a3e c2d6 aabe
00000230: d1df 1e3f 28f1 f3be 738f 5dbe 1834 fe3e
00000240: ca33 ca3e ea60 8cbf b441 12bf f346 ae3e
00000250: 0e18 a83e 8365 113e db59 40be 5329 bf3c
00000260: 862c 30be 5ccc 87bd ea68 4ebe 07b5 553e
00000270: e325 03bf 27d0 85be e811 be3e 1127 1bbf
00000280: c0e9 d0be 49b1 18bd 08b0 21bf 30a5 a73e
00000290: ef68 823f 3337 17be d724 f43b 2fa0 ce3d
000002a0: ad64 ea3d 0398 12bf dcce a23d cf55 c5be
000002b0: 9bd1 8fbd 679d 1dbf 0ef4 5fbe d2b7 5bbc
000002c0: 824f 0fbf 5352 8bbc 32fc 38be 1494 db3e
000002d0: 5121 d63e 91dc 643f e2fd a83e a505 6cbf
000002e0: bfc8 273f 27de 4b3c 2827 033f 402c 8cbe
000002f0: c33a eebe 504a 57bf 445d b53e 4b3e c5be
00000300: 905c 7b3e 2e40 b0be cbf5 41be e630 14bd
00000310: 704d 833e 5fb5 f13e 80f0 8c3e 9cc9 ef3d
00000320: 355d 71bd dc2d 16bf 5f4a f8be 5734 ce3e
00000330: cfe5 80bd ff84 e93d 59dc 91bc 8612 a5be
00000340: 2a6a 9f3e 1f8d cebd 09fe 74bd 6bc5 27be
00000350: fd36 68be aff3 7bbe 8231 173f 6a1e 223c
00000360: dee0 603e b61a 3fbd d564 70be 5a62 d0bd
00000370: f4c8 b6be 5266 23bf 13c0 babc 8be8 9ebe
00000380: 9d4d 483d c0c1 6dbd 41f2 183f d2c6 cebe
00000390: 1323 21be f1c3 073e ea29 15bd a623 a73e
000003a0: 6a18 3ebd 7159 583e b27d 923e 6847 3d3e
000003b0: d15a 76be d0b6 8fbe 697f 24be 8cae ecbe
000003c0: 1220 53be 8c8c 1cbf cb26 47bf 8fcc cd3e
000003d0: 875a 19bf 67f2 48bf b3b8 113f 9681 d2be
000003e0: 5d68 d53d a69a 8a3d 0862 ab3e e094 193e
000003f0: 12f0 9d3e 0282 a5be 7e5f 2b3f 1c1a 6fbd

funsion_block_stream1_stage_1_before_PB.0.bias f4 [10]
-0.0767748 -0.044041663 -0.07640665 -0.06944634 0.032671504 -0.13120095 0.15222223 0.04735604
-0.06351389 0.19964464
00000000: 1b3c 9dbd 0865 34bd 177b 9cbd e239 8ebd
00000010: 8ed2 053d 8b59 06be 25e0 1b3e 68f8 413d
00000020: 9213 82bd a56f 4c3e

funsion_block_stream1_stage_1_prediction_block.1.weight f4 [3, 640]
-6.348e-42 2.2906e-41 1.6528e-41 4.5653e-41 -2.3406e-41 1.0936e-41 1.4662e-41 4.7571e-41
9.483e-42 5.099e-41 -7.435e-42 -3.1518e-41 1.09e-41 -3.2722e-41 -9.079e-42 1.5619e-41
-6.152e-42 -3.4643e-41 -3.6585e-41 -3.2001e-41 -4.9584e-41 2.361e-41 5.046e-42 -2.1464e-41
-1.1879e-40 -3.8063e-41 -1.2696e-41 -1.2865e-41 -4.1537e-41 2.6134e-41 2.254e-41 4.2487e-41
-4.0184e-41 -4.2283e-41 -1.18e-42 5.4806e-41 -5.109e-42 -3.4444e-41 -2.2617e-41 -4.0856e-41
-1.2331e-41 -5.2147e-41 -8.223e-42 1.7983e-41 3.0914e-41 -1.2383e-41 -4.8387e-41 -1.2987e-41
3.3794e-41 7.9e-42 4.6523e-41 3.4821e-41 -1.08851e-40 3.8359e-41 5.2992e-41 6.005e-42
-3.327e-42 5.1905e-41 -5.7703e-41 2.6639e-41 1.868e-42 -1.1698e-40 -5.0727e-41 1.419e-41
-4.6921e-41 -5.9698e-41 -5.5853e-41 1.6265e-41 -3.1945e-41 -3.8478e-41 -1.9569e-41 9.2371e-41
2.543e-42 4.6725e-41 9.81e-43 -1.362e-42 -3.698e-42 5.9541e-41 8.5471e-41 -8.55e-41
1.5774e-41 -5.5176e-41 -3.9937e-41 5.513e-42 -2.1324e-41 1.6563e-41 -2.2529e-41 -5.9827e-41
-4.0582e-41 2.2466e-41 -1.8052e-41 3.3715e-41 1.923e-42 -2.8592e-41 -2.6e-41 3.6298e-41
-4.9703e-41 5.746e-41 -5.0335e-41 4.1798e-41 -5.5891e-41 4.8301e-41 5.7009e-41 4.298e-42
-4.306e-42 5.7352e-41 5.396e-42 1.134e-42 -4.4881e-41 4.6544e-41 -3.6292e-41 -4.631e-41
-5.7187e-41 -3.4695e-41 -3.3232e-41 -4.2542e-41 -1.1956e-41 -3.095e-41 -4.445e-41 6.985e-42
2.491e-41 -2.1192e-41 -1.194e-42 -6.373e-42 5.7476e-41 -5.079e-41 -2.1071e-41 5.994e-41
5.5783e-41 4.171e-41 2.9918e-41 -3.5027e-41 5.9615e-41 -7.512e-42 8.72e-43 4.5447e-41
1.4091e-41 -3.5753e-41 2.6501e-41 -3.804e-41 3.8773e-41 -6.0145e-41 -3.9085e-41 3.2891e-41
-3.4452e-41 -2.4598e-41 -5.301e-42 -2.9139e-41 -6.1779e-41 -1.806e-42 -2.2688e-41 -5.752e-42
-8.509e-42 1.688e-41 -4.8276e-41 -3.5763e-41 3.575e-41 -1.1743e-41 -7.144e-42 4.3918e-41
3.688e-42 6.8386e-41 -1.15572e-40 -8.7804e-41 -6.628e-42 -2.7117e-41 -1.8562e-41 1.4047e-41
-2.3725e-41 9.754e-42 -3.2129e-41 -8.6547e-41 3.9395e-41 -5.8639e-41 -5.3e-43 2.5644e-41
-3.2848e-41 1.8693e-41 -6.405e-42 -1.3035e-41 -1.0007e-41 3.7483e-41 2.515e-42 -5.2662e-41
-5.6771e-41 3.7806e-41 -3.64e-43 -2.8236e-41 -4.5521e-41 1.032e-41 -5.1129e-41 -8.031e-42
-2.1011e-41 5.4634e-41 1.17046e-40 2.1698e-41 -2.7639e-41 -5.411e-41 -5.834e-42 -5.9488e-41
4.271e-41 -4.7587e-41 3.8354e-41 -4.4309e-41 4.219e-41 2.9455e-41 -1.492e-42 -5.1625e-41
1.03747e-40 -5.4026e-41 -8.939e-42 -4.4375e-41 6.7953e-41 1.1444e-41 4.41e-43 5.1425e-41
-2.7044e-41 -4.7573e-41 -2.6279e-41 -1.2966e-41 -2.3421e-41 5.0192e-41 6.0296e-41 -3.4364e-41
1.6528e-41 -2.2757e-41 -5.8985e-41 -1.0008e-41 2.408e-41 -1.03958e-40 4.8045e-41 4.0349e-41
1.3038e-41 -3.3251e-41 3.4182e-41 -9.763e-42 -1.3022e-41 -2.6172e-41 -4.5872e-41 3.4126e-41
2.9378e-41 4.1749e-41 -1.9091e-41 4.5192e-41 -5.8357e-41 -1.0647e-41 1.7152e-41 3.266e-41
5.196e-41 -5.3495e-41 -3.5778e-41 -5.346e-41 -4.8129e-41 5.9956e-41 -4.7347e-41 3.8236e-41
00000000: b211 0080 da3f 0000 132e 0000 437f 0000
00000010: 3f41 0080 7c1e 0000 df28 0000 9c84 0000
00000020: 6f1a 0000 248e 0000 ba14 0080 dc57 0080
00000030: 621e 0000 375b 0080 4f19 0080 8a2b 0000
00000040: 2611 0080 9260 0080 fc65 0080 3559 0080
00000050: 388a 0080 d141 0000 110e 0000 d53b 0080
00000060: 234b 0180 1b6a 0080 6423 0080 dd23 0080
00000070: ca73 0080 da48 0000 d53e 0000 7076 0000
00000080: 0470 0080 de75 0080 4a03 0080 c798 0000
00000090: 3e0e 0080 0460 0080 0c3f 0080 e471 0080
000000a0: 6022 0080 5d91 0080 ec16 0080 2132 0000
000000b0: 2d56 0000 8522 0080 e286 0080 3424 0080
000000c0: 345e 0000 0616 0000 b081 0000 1161 0000
000000d0: 6f2f 0180 ee6a 0000 b893 0000 bd10 0000
000000e0: 4609 0080 b190 0000 daa0 0080 424a 0000
000000f0: 3505 0000 1846 0180 688d 0080 8e27 0000
00000100: cc82 0080 6aa6 0080 b29b 0080 572d 0000
00000110: 0d59 0080 436b 0080 8d36 0080 7e01 0100
00000120: 1707 0000 4082 0000 bc02 0000 cc03 0080
00000130: 4f0a 0080 faa5 0000 42ee 0000 57ee 0080
00000140: f92b 0000 cf99 0080 546f 0080 5e0f 0000
00000150: 713b 0080 2c2e 0000 cd3e 0080 c6a6 0080
00000160: 2071 0080 a03e 0000 5232 0080 fc5d 0000
00000170: 5c05 0000 b44f 0080 7a48 0080 2f65 0000
00000180: 8d8a 0080 2da0 0000 508c 0080 8474 0000
00000190: cd9b 0080 a586 0000 eb9e 0000 fb0b 0000
000001a0: 010c 0080 e09f 0000 0b0f 0000 2903 0000
000001b0: 1c7d 0080 bf81 0000 2b65 0080 1881 0080
000001c0: 6a9f 0080 b760 0080 a35c 0080 9776 0080
000001d0: 5421 0080 4756 0080 e97b 0080 7913 0000
000001e0: 7045 0000 133b 0080 5403 0080 c411 0080
000001f0: 38a0 0000 958d 0080 bd3a 0080 17a7 0000
00000200: 809b 0000 4574 0000 6653 0000 a461 0080
00000210: 2fa6 0000 f114 0080 6e02 0000 b07e 0000
00000220: 4827 0000 aa63 0080 e049 0000 0a6a 0080
00000230: 156c 0000 a9a7 0080 f46c 0080 b05b 0000
00000240: 0a60 0080 9244 0080 c70e 0080 3a51 0080
00000250: 37ac 0080 0905 0080 3f3f 0080 0910 0080
00000260: b817 0080 0e2f 0000 9386 0080 b163 0080
00000270: a863 0000 bc20 0080 ea13 0080 6d7a 0000
00000280: 480a 0000 a2be 0000 2b42 0180 c3f4 0080
00000290: 7a12 0080 974b 0080 be33 0080 2827 0000
000002a0: 2342 0080 311b 0000 9059 0080 42f1 0080
000002b0: d16d 0000 76a3 0080 7a01 0080 7c47 0000
000002c0: 915b 0080 1c34 0000 db11 0080 5624 0080
000002d0: e51b 0080 7d68 0000 0307 0000 cd92 0080
000002e0: 419e 0080 6369 0000 0401 0080 b64e 0080
000002f0: e57e 0080 c51c 0000 878e 0080 6316 0080
00000300: 923a 0080 4c98 0000 4746 0100 7c3c 0000
00000310: 0c4d 0080 d696 0080 4310 0080 d4a5 0080
00000320: 0f77 0000 a784 0080 ea6a 0000 847b 0080
00000330: 9c75 0000 1c52 0000 2904 0080 e98f 0080
00000340: 3421 0100 9a96 0080 eb18 0080 b37b 0080
00000350: 6dbd 0000 e71f 0000 3b01 0000 5a8f 0000
00000360: 634b 0080 9d84 0080 4149 0080 2524 0080
00000370: 4a41 0080 ea8b 0000 15a8 0000 cb5f 0080
00000380: 132e 0000 703f 0080 6da4 0080 e61b 0080
00000390: 2043 0000 cb21 0180 ee85 0000 7a70 0000
000003a0: 5824 0000 b15c 0080 495f 0000 371b 0080
000003b0: 4d24 0080 f548 0080 df7f 0080 215f 0000
000003c0: e551 0000 6174 0000 3835 0080 fa7d 0000
000003d0: ada2 0080 ae1d 0080 d02f 0000 0b5b 0000
000003e0: d890 0000 1f95 0080 bc63 0080 0695 0080
000003f0: 2a86 0080 22a7 0000 fc83 0080 966a 0000

funsion_block_stream1_stage_1_prediction_block.1.bias f4 [3]
-2.619e-41 0.43616053 -0.06960498
00000000: 0249 0080 6f50 df3e 0e8d 8ebd

funsion_block_stream2_stage_3_before_PB.0.weight f4 [10, 16, 1, 1]
0.34974366 0.13452566 -0.5810638 -0.043359485 -1.0162988 0.1441286 0.043098465 0.18328364
-0.92159086 0.25834262 -0.6194785 0.14563346 -0.01854929 0.12350975 -0.26230374 0.19618808
-0.06865454 -0.26000458 -0.06714216 0.8127237 0.46977288 0.2827937 -0.22908694 0.80753267
0.76896375 0.46415895 -1.1431401 1.4387295 -0.21364985 -0.19684762 0.23055752 0.031013604
0.20137538 -0.61189896 0.31936944 -0.27469146 -0.14392547 -0.3499267 0.2326863 0.22676624
-0.059227586 -0.05231708 0.29256967 0.12658457 0.15268324 0.14314468 0.2673174 0.26794386
0.14172988 0.47687146 0.08705115 0.015044966 0.14140923 0.035371818 -0.49489287 -0.17032804
0.25586295 -0.076233104 0.12800162 -0.1651045 -0.013072188 0.08208127 -0.39905185 -0.29307386
0.4663985 -0.09662026 0.4917059 0.3043335 -0.12839529 0.19789383 -0.26143938 0.31488702
0.4749596 -0.1361954 -0.3371082 -0.2165469 1.0968693 0.844205 0.22679804 0.11314857
-0.17742355 -0.33477572 -0.076986514 -0.4964464 0.0054369234 -0.12390031 0.28086448 -0.03379899
-0.4315294 0.1547092 -0.7456926 0.11659184 -0.19394755 -0.11665722 0.10334219 0.15630968
-0.54275817 0.4716602 0.28148577 0.31958503 0.111477144 0.6960022 -0.39566702 -0.080179796
-0.77146775 0.1246844 0.14731444 0.07951213 -0.44543865 -0.5508528 -0.7333225 0.25957972
-0.20210299 0.44925606 -0.39765203 0.29635265 0.4892488 -1.2143238 0.6138094 0.22047754
0.026823875 0.7387992 0.33316234 -0.20255595 0.22784522 0.044319503 -0.018479945 0.11540977
0.098956645 -0.23657478 -0.14783573 -0.051587734 -0.20492361 0.54348403 -0.39261928 -0.1001209
0.07747444 0.5645131 0.4864181 0.0061407927 -0.342125 0.17912175 -0.55216557 0.54899585
0.29385215 0.20912422 -0.58119607 0.40391952 -0.09636277 0.43273982 0.2990132 0.45468765
-0.45551693 -0.48158002 -0.57142866 0.2620082 0.19488822 0.21241236 0.08437968 0.082251504
00000000: 9a11 b33e 18c1 093e 99c0 14bf b799 31bd
00000010: 1416 82bf 7396 133e 0488 303d b5ae 3b3e
00000020: 61ed 6bbf 7c45 843e 2596 1ebf f020 153e
00000030: aef4 97bc aef2 fc3d ad4c 86be 87e5 483e
00000040: c09a 8cbd 521f 85be d481 89bd a90e 503f
00000050: 1286 f03e 56ca 903e c495 6abe 76ba 4e3f
00000060: cfda 443f 3ea6 ed3e 6a52 92bf 4a28 b83f
00000070: 07c7 5abe 6c92 49be 4517 6c3e 3e10 fe3c
00000080: 5935 4e3e 69a5 1cbf 6484 a33e 5ca4 8cbe
00000090: 3361 13be 9829 b3be 5145 6e3e 6935 683e
000000a0: a098 72bd 6f4a 56bd b1cb 953e 639f 013e
000000b0: ff58 1c3e 8594 123e d4dd 883e f02f 893e
000000c0: a321 113e 7f28 f43e e047 b23d 297f 763c
000000d0: 95cd 103e 0ae2 103d 9962 fdbe 796a 2ebe
000000e0: 7800 833e 1a20 9cbd db12 033e 2711 29be
000000f0: bb2c 56bc 3a1a a83d 8650 ccbe c70d 96be
00000100: c9cb ee3e d8e0 c5bd e0c0 fb3e 9ad1 9b3e
00000110: 0e7a 03be aea4 4a3e 62db 85be df38 a13e
00000120: e82d f33e cf76 0bbe 7299 acbe 78be 5dbe
00000130: 3766 8c3f d21d 583f bf3d 683e 70ba e73d
00000140: 85ae 35be b967 abbe 1bab 9dbd 392e febe
00000150: 3828 b23b 72bf fdbd 78cd 8f3e cf70 0abd
00000160: 6cf1 dcbe 176c 1e3e b6e5 3ebf b4c7 ee3d
00000170: 309a 46be fbe9 eebd 12a5 d33d a50f 203e
00000180: 33f2 0abf 727d f13e e71e 903e a6a0 a33e
00000190: 214e e43d 332d 323f de94 cabe 4e35 a4bd
000001a0: e97e 45bf 895a ff3d 99d9 163e 41d7 a23d
000001b0: 8910 e4be b004 0dbf 06bb 3bbf a2e7 843e
000001c0: 16f4 4ebe e404 e63e 0c99 cbbe 89bb 973e
000001d0: d27e fa3e f66e 9bbf 9d22 1d3f ddc4 613e
000001e0: bebd db3c f221 3d3f 4194 aa3e d46a 4fbe
000001f0: 4250 693e 5e88 353d 4163 97bc f55b ec3d
00000200: c8a9 ca3d a940 72be 4062 17be a94d 53bd
00000210: 7fd7 51be c521 0b3f 6505 c9be 300c cdbd
00000220: ebaa 9e3d ee83 103f cb0b f93e b438 c93b
00000230: 022b afbe b16b 373e b95a 0dbf fe8a 0c3f
00000240: ca73 963e a924 563e 44c9 14bf 8ace ce3e
00000250: d859 c5bd 1390 dd3e 4218 993e d2cc e83e
00000260: 8439 e9be a891 f6be 2649 12bf f025 863e
00000270: c790 473e a082 593e 41cf ac3d 7a73 a83d

funsion_block_stream2_stage_3_before_PB.0.bias f4 [10]
-0.27645248 -0.1791259 0.22952822 -0.18669657 -0.0006416492 -0.05686698 0.04447596 -0.19347584
-0.08787334 -0.019989401
00000000: 2e8b 8dbe c86c 37be 7209 6b3e 632d 3fbe
00000010: 5934 28ba 5aed 68bd 6d2c 363d 881e 46be
00000020: f0f6 b3bd d0c0 a3bc

funsion_block_stream2_stage_3_prediction_block.1.weight f4 [3, 160]
3.447e-41 1.931e-42 2.4956e-41 -4.9527e-41 8.685e-42 2.8434e-41 -3.2493e-41 -4.5876e-41
-2.7908e-41 2.2184e-41 7.339e-42 1.1868e-41 -1.4239e-41 2.3301e-41 -4.5992e-41 2.9286e-41
-1.1535e-41 -3.2479e-41 -8.84e-42 1.6727e-41 -9.403e-42 -1.1866e-41 1.5517e-41 -2.339e-42
2.2084e-41 -2.4897e-41 3.059e-42 -4.0178e-41 1.1265e-41 -5.9286e-41 1.0675e-41 -3.0702e-41
-1.4027e-41 4.469e-42 1.9367e-41 2.5641e-41 -2.6011e-41 5.6328e-41 2.287e-41 2.6416e-41
-4.952e-42 3.0467e-41 1.3301e-41 2.7558e-41 -1.419e-41 1.5816e-41 -1.3905e-41 -1.2572e-41
-5.396e-42 6.92e-43 2.865e-41 -5.2326e-41 4.889e-42 -1.2396e-41 2.6487e-41 3.753e-42
2.776e-42 -3.301e-42 2.2198e-41 -9.773e-42 3.05e-41 2.7558e-41 -2.1307e-41 2.492e-41
-1.138e-41 -1.12646e-40 1.8908e-41 -3.9511e-41 2.1324e-41 1.623e-41 2.0963e-41 2.622e-42
-1.04e-41 3.8244e-41 1.6628e-41 -5.4583e-41 2.95e-41 -1.2745e-41 2.1601e-41 -2.1059e-41
-9.92e-42 -2.9189e-41 -1.88e-42 -2.8012e-41 -2.1838e-41 -4.4669e-41 4.351e-42 3.092e-41
1.779e-41 -7.575e-42 -1.7058e-41 -5.0955e-41 -1.1199e-41 -4.893e-42 -2.3375e-41 1.927e-42
3.8582e-41 2.609e-42 1.9568e-41 3.8e-44 1.4247e-41 -3.7097e-41 1.9006e-41 1.9278e-41
-1.5276e-41 -1.1241e-41 -2.7195e-41 -1.3758e-41 -2.1206e-41 1.07945e-40 -3.2519e-41 -1.2507e-41
1.895e-42 2.241e-41 1.0293e-41 -4.7e-43 -1.6642e-41 -1.0302e-41 2.775e-42 9.043e-42
1.6732e-41 -1.5225e-41 -6.92e-43 3.213e-42 1.05e-41 -5.252e-41 4.5289e-41 -9.335e-42
-1.8043e-41 1.3115e-41 -2.211e-42 -2.121e-41 -2.1807e-41 -2.4671e-41 -2.0623e-41 -1.243e-42
4.871e-42 -5.0026e-41 2.1601e-41 -2.1263e-41 -4.2026e-41 2.3029e-41 -4.4811e-41 -4.0513e-41
-8.643e-42 -3.4717e-41 1.2375e-41 4.453e-42 -3.383e-42 1.1168e-41 1.7813e-41 1.9833e-41
2.923e-42 1.8576e-41 2.1377e-41 1.7157e-41 -2.3358e-41 -3.9728e-41 2.7443e-41 3.062e-41
-2.1503e-41 -4.5461e-41 -2.2191e-41 -2.8602e-41 4.3471e-41 -3.767e-42 -1.3183e-41 6.96e-42
7.102e-42 -2.423e-42 -1.525e-41 2.762e-42 1.592e-42 -2.508e-41 -2.923e-42 1.6531e-41
1.0061e-41 3.0925e-41 1.4694e-41 3.8299e-41 -3.185e-42 -1.5616e-41 -2.6265e-41 1.115e-41
-4.5423e-41 1.4148e-41 8.228e-42 1.3838e-41 -2.9035e-41 4.6176e-41 -6.0784e-41 -2.766e-41
-2.2948e-41 -2.874e-42 4.74e-42 4.5242e-41 5.2878e-41 1.067e-41 -1.009e-41 -4.4111e-41
2.203e-41 1.1153e-41 -2.1495e-41 -4.3819e-41 -8.237e-42 -6.3e-43 7.85e-42 1.0894e-41
-1.5986e-41 2.353e-41 2.1012e-41 -7.166e-42 1.879e-41 -3.3031e-41 -5.245e-42 1.056e-41
3.57e-43 1.016e-41 -3.1e-44 -2.4758e-41 3.9861e-41 -2.5725e-41 -1.707e-41 8.254e-42
3.452e-41 -3.994e-42 -4.03e-42 1.6593e-41 -4.5835e-41 -2.7712e-41 2.076e-41 -1.66e-41
5.6046e-41 -9.354e-42 -2.6222e-41 6.122e-42 5.6383e-41 -4.668e-42 2.2292e-41 -3.823e-42
4.4351e-41 -2.4423e-41 -1.0365e-41 1.0109e-41 1.034e-41 -2.871e-42 -2.2831e-41 2.846e-42
2.5003e-41 1.5811e-41 1.4002e-41 1.893e-41 -4.08e-43 -1.3972e-41 6.973e-42 -3.8777e-41
00000000: 1760 0000 6205 0000 9145 0000 108a 0080
00000010: 3618 0000 434f 0000 945a 0080 e27f 0080
00000020: cc4d 0080 d73d 0000 7514 0000 1521 0000
00000030: b127 0080 f440 0000 3580 0080 a351 0000
00000040: 2820 0080 8a5a 0080 a418 0080 a12e 0000
00000050: 361a 0080 1421 0080 412b 0000 8506 0080
00000060: 903d 0000 6745 0080 8708 0000 0070 0080
00000070: 671f 0000 44a5 0080 c21d 0000 9655 0080
00000080: 1a27 0080 750c 0000 fd35 0000 7a47 0000
00000090: 8248 0080 059d 0000 c13f 0000 a349 0000
000000a0: ce0d 0080 ee54 0000 1425 0000 d24c 0000
000000b0: 8e27 0080 172c 0000 c326 0080 0c23 0080
000000c0: 0b0f 0080 ee01 0000 dd4f 0000 dd91 0080
000000d0: a10d 0000 8e22 0080 d649 0000 760a 0000
000000e0: bd07 0000 3409 0080 e13d 0000 3e1b 0080
000000f0: 0655 0000 d24c 0000 653b 0080 7845 0000
00000100: b91f 0080 033a 0180 b534 0000 246e 0080
00000110: 713b 0000 3e2d 0000 703a 0000 4f07 0000
00000120: fe1c 0080 9c6a 0000 5a2e 0000 2898 0080
00000130: 3c52 0000 8723 0080 373c 0000 b43a 0080
00000140: a71b 0080 5e51 0080 3e05 0080 164e 0080
00000150: e03c 0080 857c 0080 210c 0000 3156 0000
00000160: 9731 0000 1e15 0080 8d2f 0080 0b8e 0080
00000170: 381f 0080 a40d 0080 2941 0080 5f05 0000
00000180: 8d6b 0000 4607 0000 8c36 0000 1b00 0000
00000190: b727 0000 6967 0080 fb34 0000 bd35 0000
000001a0: 952a 0080 561f 0080 cf4b 0080 5a26 0080
000001b0: 1d3b 0080 e82c 0100 a65a 0080 dd22 0080
000001c0: 4805 0000 783e 0000 b11c 0000 4f01 0080
000001d0: 642e 0080 b81c 0080 bc07 0000 3519 0000
000001e0: a42e 0000 712a 0080 ee01 0080 f508 0000
000001f0: 451d 0000 6892 0080 3f7e 0000 061a 0080
00000200: 4c32 0080 8f24 0000 2a06 0080 203b 0080
00000210: ca3c 0080 c644 0080 7d39 0080 7703 0080
00000220: 940d 0000 748b 0080 373c 0000 463b 0080
00000230: 2775 0080 3240 0000 ea7c 0080 ef70 0080
00000240: 1818 0080 c760 0080 7f22 0000 6a0c 0000
00000250: 6e09 0080 221f 0000 a831 0000 4937 0000
00000260: 2608 0000 c833 0000 973b 0000 d42f 0000
00000270: 1d41 0080 bf6e 0080 804c 0000 5b55 0000
00000280: f13b 0080 ba7e 0080 dc3d 0080 bb4f 0080
00000290: 2e79 0000 800a 0080 c024 0080 6713 0000
000002a0: cc13 0000 c106 0080 832a 0080 b307 0000
000002b0: 7004 0000 ea45 0080 2608 0080 152e 0000
000002c0: 0c1c 0000 3556 0000 f628 0000 c36a 0000
000002d0: e108 0080 882b 0080 3749 0080 151f 0000
000002e0: 9f7e 0080 7027 0000 f016 0000 9326 0000
000002f0: f050 0080 b880 0000 71a9 0080 1b4d 0080
00000300: f83f 0080 0308 0080 370d 0000 1e7e 0000
00000310: 6793 0000 be1d 0000 201c 0080 f77a 0080
00000320: 693d 0000 171f 0000 eb3b 0080 267a 0080
00000330: f616 0080 c201 0080 e215 0000 5e1e 0000
00000340: 902c 0080 9841 0000 933a 0000 fa13 0080
00000350: 6134 0000 145c 0080 9f0e 0080 701d 0000
00000360: ff00 0000 521c 0000 1600 0080 0445 0080
00000370: 1e6f 0000 b647 0080 962f 0080 0217 0000
00000380: 3a60 0000 220b 0080 3c0b 0080 412e 0000
00000390: c57f 0080 404d 0080 df39 0000 462e 0080
000003a0: 3c9c 0000 131a 0080 1949 0080 1111 0000
000003b0: 2c9d 0000 030d 0080 243e 0000 a80a 0080
000003c0: a27b 0000 1544 0080 e51c 0080 2e1c 0000
000003d0: d31c 0000 0108 0080 a53f 0080 ef07 0000
000003e0: b345 0000 132c 0000 0827 0000 c534 0000
000003f0: 2301 0080 f326 0080 7013 0000 186c 0080

funsion_block_stream2_stage_3_prediction_block.1.bias f4 [3]
3.254e-41 -1.0061e-41 -2.323e-42
00000000: b55a 0000 0c1c 0080 7a06 0080
